model.pkl (torch, 90063 bytes, 8 tensors)

fc1.weight f4 [100, 8]
000000 33 5c 02 3f fb 96 3c be 80 fd ae be f7 f6 fa 3d
       0.50921935 -0.1841697 -0.3417778 0.12254136
000010 ec 54 b9 3a 57 03 b7 3e 20 18 32 3d cc d8 5b be
       0.0014139689 0.35744736 0.04348004 -0.2146942
000020 e6 ba e4 3e 32 40 66 3e 6f 73 fd 3d 19 44 20 bd
       0.44673842 0.22485426 0.12375533 -0.039127443
000030 41 d3 b6 3d 8f 10 a3 be 3e ec ef 3c 13 f7 74 bd
       0.08927012 -0.3184857 0.029287454 -0.05980594
000040 10 25 82 3d 6e 79 d1 3d c2 ef 17 be 0b a1 3d be
       0.06354725 0.10228239 -0.14837554 -0.18518464
000050 b4 ba cc 3e 21 46 d8 3e d6 05 a7 be 0b 0e 2c 3e
       0.39986193 0.42241004 -0.3262164 0.16802232
000060 0a b7 e4 3d f5 f3 41 3e aa 8f 84 3e 1c 44 33 3e
       0.111677244 0.18940718 0.25890857 0.1750645
000070 64 02 69 3e 42 59 86 bd ff 55 13 3d f6 32 a5 be
       0.22754818 -0.06559993 0.035970684 -0.32265443
000080 40 78 10 3f c4 f8 5d 3e b2 d9 6a 3e bf fc 28 bd
       0.56433487 0.21676928 0.22934607 -0.041256662
000090 1f d3 87 bd 98 cd 51 3d b3 78 2b be 0e fd 8c be
       -0.06632065 0.05122146 -0.16745262 -0.27536815
0000a0 07 26 d5 3d 7d da 97 be be ae bf be 53 a2 21 3b
       0.10407644 -0.2965888 -0.37438005 0.0024663403
0000b0 9f 72 aa 3e 91 1e 8f 3e 69 67 70 bd 6b dc b4 be
       0.33290574 0.27953008 -0.05869237 -0.35324416
0000c0 ba 38 6f 3d cd ca ac be 08 32 a5 bc d6 27 c0 bc
       0.058403708 -0.33748475 -0.020165458 -0.023456495
0000d0 1c 85 95 be 21 aa ba be 21 06 91 bd 4e 3c a0 3e
       -0.29203117 -0.36457923 -0.07081247 0.3129601
0000e0 5b 79 47 be 35 c9 e4 3e 49 58 a4 3d ae 8f 02 be
       -0.19479887 0.4468476 0.080246516 -0.12750122
0000f0 f7 bf 83 3c 11 c8 89 be d0 d2 35 3e e1 bf 3b 3d
       0.016082747 -0.2691045 0.177562 0.045837287
000100 f3 e9 01 be 87 67 c1 3d c8 bb da bd 4d 8e a8 be
       -0.12686901 0.094435744 -0.10680348 -0.32921067
000110 6e c3 bb 3e c0 17 56 3c da c3 0e 3e fd a0 0b 3c
       0.3667254 0.013067186 0.13941899 0.008522269
000120 dc d6 09 be df c9 80 3e d4 80 c4 be 67 b4 cb 3e
       -0.13460869 0.25154015 -0.38379538 0.39786074
000130 57 88 92 3e 27 ec 18 3e a3 14 c9 3b 47 ef 7e 3e
       0.28619644 0.14933835 0.0061364933 0.24895965
000140 a2 7d 01 bf 52 33 c9 be 75 51 cd be 61 7c 75 be
       -0.50582325 -0.39296967 -0.4010121 -0.23973228
000150 6f e3 53 be 68 c6 96 3e 07 28 ab 3e 08 b3 b4 3e
       -0.20692228 0.29448247 0.33428976 0.3529284
000160 c3 5b 58 bb c8 1f e2 3e 7f 02 7c bb 0e c8 b3 be
       -0.0033013679 0.44164872 -0.0038453636 -0.35113567
000170 88 95 5c 3e 36 17 c0 3e 7e 0a 9c 3b 76 bb 18 3e
       0.21541417 0.3751771 0.004761993 0.1491526
000180 16 11 7a be b8 6d 94 3e e4 6c 70 3e 39 cd c1 3c
       -0.2442058 0.2898996 0.23479038 0.023657428
000190 12 d2 ec 3e 20 5a dd 3e 90 c8 be 3e fc e2 4b 3e
       0.4625402 0.43232822 0.37262392 0.19910806
0001a0 ca 99 08 bf c3 c3 11 bd 60 e9 34 3d bb 78 f8 ba
       -0.53359663 -0.035587084 0.044167876 -0.0018956879
0001b0 f6 2d 04 be 29 ed 40 3e 02 f2 9a be 44 7e 79 3e
       -0.12908158 0.1884047 -0.30262762 0.24364573
0001c0 77 71 98 3e ab ae 04 3e de d8 72 be dd ac 5c 3e
       0.29774067 0.12957256 -0.23715541 0.21550317
0001d0 d5 8e 50 be 5a 5d d2 bd 5c 7b 3e be d6 06 46 3e
       -0.20366986 -0.10271712 -0.18601745 0.19338545
0001e0 d8 34 27 3e fa eb 0b 3d da 81 1d 3d 79 81 ce bd
       0.16328752 0.03416059 0.038453914 -0.10083289
0001f0 77 4c 95 be 74 c8 9c 3e f5 f7 83 3e 97 3b 71 3e
       -0.291599 0.30621684 0.25775114 0.23557888
000200 4d 7c e6 be e1 47 3c be 8a fd bb 3e 2f ad 4e 3d
       -0.4501671 -0.18386795 0.36716872 0.05045813
000210 6a 08 bb be d0 cd a3 3d 82 53 29 bd 10 0f 21 3e
       -0.36529857 0.0799824 -0.041339405 0.15728402
000220 ab 00 d3 bd 22 82 64 be 99 ae 42 be 8b 1b 77 3e
       -0.10302862 -0.22315267 -0.19011916 0.241316
000230 76 df 11 3e 83 b4 96 3d 7d 9d b1 3e 40 8b ad be
       0.142454 0.07358649 0.34690467 -0.33895302
000240 da 09 8e 3e c5 d0 97 3e f0 04 9f be 62 ef b4 3d
       0.2774189 0.29651466 -0.31058455 0.08834721
000250 23 ba 1d be d6 98 2f be 6e 18 48 be 01 b7 85 be
       -0.15403037 -0.17148146 -0.19540569 -0.26116183
000260 21 31 2d 3f a8 8c 2a be ec 7b 85 3e e1 66 cd 3d
       0.6765309 -0.16655219 0.26071107 0.10029388
000270 97 b5 e4 be 29 0c d5 3d e6 ed b6 be 18 5a d6 be
       -0.44669792 0.1040271 -0.35728377 -0.4186561
000280 97 b9 44 3d 65 98 92 3e fc 3c 4d 3e ad 9d 8a be
       0.048028555 0.28631893 0.20042795 -0.27073422
000290 db 82 fa 3d 5a 0d ad 3e f1 9d b4 be 6e 41 13 3e
       0.1223199 0.3379925 -0.3527675 0.14380428
0002a0 49 96 1c be 25 08 c1 3e 23 9c e6 3e bc 39 54 3e
       -0.15291704 0.37701526 0.45040998 0.20725149
0002b0 d7 e3 56 bd 99 23 46 be a7 b3 99 be da 3d 08 be
       -0.05246338 -0.19349517 -0.30019876 -0.13304844
0002c0 72 4d c3 be fd 09 97 be 42 c1 06 bd c1 7d 57 3e
       -0.38145024 -0.29499808 -0.03289915 0.21044065
0002d0 48 ea 3b be a5 55 38 3e 06 7f 22 be 9b 17 14 3d
       -0.1835109 0.18001421 -0.15868768 0.036155324
0002e0 ed 8f 2d be bd 75 4d 3e 08 99 47 3d 46 7f a5 3d
       -0.16949435 0.20064445 0.048729926 0.08080916
0002f0 fe f1 df 3e 69 00 2a 3d e6 67 fd bd 4f 62 8a 3e
       0.43739313 0.041504297 -0.12373333 0.27028129
000300 3c a7 b0 be a4 fb 28 be 7d 81 8a 3e 34 e9 83 3e
       -0.3450259 -0.16502243 0.27051917 0.25763857
000310 eb 49 0c bf 73 5e ab 3c 16 c6 46 be 49 db 0c 3d
       -0.5480029 0.02091906 -0.19411501 0.034388814
000320 38 42 a6 be 10 c2 e4 be c6 ac 5a bd b3 0c 35 3e
       -0.32472396 -0.44679308 -0.053387426 0.17680626
000330 ec a5 89 be 17 de 82 3e e9 8d 60 bb 6e 3c 11 bd
       -0.268844 0.25560066 -0.0034264273 -0.03545802
000340 2e 98 d5 3c 72 c0 03 bf d8 d7 d3 3e af 9b 51 be
       0.026073541 -0.51465523 0.41375613 -0.20469545
000350 09 7c 11 3e 44 8c e3 3d 3c cf 7a bc c7 de b9 3d
       0.14207472 0.11110738 -0.015308198 0.090756945
000360 5c d3 42 be 7c 3f a4 bd 69 51 74 3e 6d 33 a7 3e
       -0.1902594 -0.08019921 0.2385918 0.32656422
000370 9b 50 ea bd d3 fa 24 be 55 82 86 be 89 a6 4a 3e
       -0.114411555 -0.16111307 -0.2627131 0.1979009
000380 49 71 cf be dc fb 56 bd 63 21 48 3e 80 f6 95 3e
       -0.40516117 -0.052486286 0.19543986 0.29289627
000390 f7 79 42 be 52 6e c4 3c 47 90 85 be a1 34 4b 3e
       -0.18991838 0.023978386 -0.26086637 0.19844295
0003a0 bd b1 9f 3d 46 62 48 3d c0 af 35 be eb 87 c4 bd
       0.07797573 0.048921846 -0.17742825 -0.09596237
0003b0 48 a3 b3 be fb d2 5d be ee cd 82 bd cc f7 d8 3a
       -0.3508551 -0.21662514 -0.06386934 0.0016553341
0003c0 02 6c be 3d c6 c4 c0 be 3a 5d ca be 12 c4 39 be
       0.092979446 -0.37650126 -0.3952425 -0.18141201
0003d0 0c df a9 bd 42 4a ff 3d 34 42 64 3e 8f ce 45 3e
       -0.08294496 0.124653354 0.2229088 0.19317077
0003e0 1e 8f db be 02 a5 31 bf 31 36 92 3e 69 b6 77 3e
       -0.42882627 -0.69392407 0.2855697 0.24190678
0003f0 1c f7 88 be ed 17 86 3e a0 31 7c 3e b1 f0 0f 3e
       -0.2675103 0.2619013 0.24628305 0.1405666

fc1.bias f4 [100]
000000 b5 42 ba be a9 dd 09 bd c4 87 98 3e 47 87 05 3e
       -0.36379018 -0.033658657 0.2979108 0.13039885
000010 69 f6 36 be 82 f5 43 be 93 5b 55 3e 2b d3 cd 3d
       -0.17867436 -0.19136623 0.20835714 0.10050043
000020 69 c9 01 3e c2 ea a7 be 47 ee b0 3d e3 a7 39 3c
       0.12674488 -0.32796293 0.08639198 0.011331531
000030 a7 e5 92 bd 11 b1 b1 3c bb 41 a2 3e 90 51 b3 3e
       -0.07172709 0.021690877 0.31690773 0.35023165
000040 7e 79 b9 3e 1e 0d 1a 3e 38 c8 25 be f2 81 ea 3d
       0.36225504 0.15044066 -0.16189659 0.11450566
000050 72 b6 7b 3e 55 33 af 3e 95 06 2c be b7 cd 80 bc
       0.24581316 0.3421885 -0.16799386 -0.015723092
000060 28 d6 aa 3e 78 6a e6 3d 19 33 2c 3d 85 aa a9 be
       0.33366513 0.11250776 0.042040918 -0.3313791
000070 4f 3b a7 3e ce dc 93 3e a8 29 91 3d 58 ee 8a bc
       0.32662436 0.28879398 0.070880234 -0.016959354
000080 e9 4c 0d 3c b6 d1 65 3e 14 d0 2d 3e 06 53 6a 3d
       0.008624294 0.2244328 0.16973907 0.057208084
000090 40 b8 2b be d4 c1 97 be 23 9f 0a be 41 55 10 3d
       -0.16769505 -0.29640067 -0.13537268 0.035237554
0000a0 fc 27 90 be 0d a4 4b 3e 27 ca 44 3e bb 52 4e be
       -0.28155506 0.19886799 0.1921774 -0.20148747
0000b0 88 7e 0f bd 3e a2 60 3e 32 78 81 3c 5b bb 55 3e
       -0.03503278 0.2193689 0.015804384 0.20872252
0000c0 0d cd f3 3d f0 e8 30 be a8 90 18 bd 19 81 53 3e
       0.11904345 -0.17276359 -0.03724733 0.20654716
0000d0 6e e3 9d 3e 51 54 74 be c8 fb 9a be a5 51 86 be
       0.30837578 -0.23860289 -0.3027022 -0.26234165
0000e0 2a 7e a0 bc 01 11 27 be 48 02 99 be bb 2d 17 3e
       -0.01959141 -0.1631508 -0.29884553 0.14763539
0000f0 de fd 04 3e 89 9e 75 bd f1 1d 06 be 4d 30 30 3e
       0.12987468 -0.059965644 -0.13097359 0.17205925
000100 b1 51 6b 3e f4 04 12 be d1 7b 0b be 6a ff 41 3e
       0.22980382 -0.14259702 -0.13621451 0.18945089
000110 93 1d 9f be 44 54 42 3e 25 c1 ff 3d 22 f6 7a 3e
       -0.3107725 0.18977457 0.12488011 0.24507955
000120 62 ad 04 be d3 c1 08 3c 52 5b 72 3e 72 c6 a3 be
       -0.12956765 0.008346993 0.23667648 -0.3198734
000130 7a 51 9e be 23 44 82 be b3 1b c7 3e 48 3d e8 3c
       -0.30921537 -0.2544261 0.3888832 0.028349534
000140 88 3b 5e be 9a 45 89 be 35 9a 68 bd 6e 1a e2 bd
       -0.21702397 -0.26810914 -0.05678769 -0.11040197
000150 90 a7 9e 3e 39 65 2f 3e 08 0b 9f 3d 18 9b 6d 3e
       0.30987215 0.17128457 0.07765776 0.23203695
000160 95 7f c4 be 83 5f ec 3d 70 38 d9 3d 57 ad a7 3e
       -0.38378587 0.11541655 0.10606468 0.32749435
000170 35 67 b4 be a0 b7 8e be a4 cd aa ba 92 1f 10 3d
       -0.3523499 -0.2787447 -0.0013031256 0.035186358
000180 db db 7e be ca 8b 9e be a9 7e b9 3c c6 12 98 3e
       -0.24888556 -0.30966026 0.022643404 0.29701823

fc2.weight f4 [100, 100]
000000 54 f1 60 3d ba ae 32 3d a0 c8 fe bc 99 08 fe bc
       0.05491765 0.043623663 -0.031101525 -0.031009959
000010 40 a9 81 bd ef 56 39 bd 02 71 3e bc cf 5f ae bd
       -0.0633111 -0.045248922 -0.011623623 -0.08514368
000020 11 d3 47 3d 80 48 18 bd c6 15 08 3e 12 be bd bd
       0.048785273 -0.037178516 0.13289556 -0.09264769
000030 64 8a 01 bb a3 10 42 3d 21 75 50 3d f9 d3 98 3c
       -0.0019766325 0.047379147 0.050892953 0.018655764
000040 13 bc bf 3d b7 d9 47 3d 21 5a 82 bd 33 dc 17 3d
       0.09362044 0.048791613 -0.06364847 0.037075233
000050 c9 34 d8 bd b7 87 dd bd f0 4c fa bb f0 f8 f5 bc
       -0.10556943 -0.10816901 -0.007638566 -0.03002593
000060 7a 12 85 bc 10 b5 0d bd 60 74 20 3d b6 74 41 3d
       -0.016244162 -0.034596503 0.039173484 0.047230445
000070 95 29 a5 bd 35 85 4e 3e 2c 45 b1 3d b7 da 0e 3e
       -0.08064572 0.20168002 0.086557716 0.1395062
000080 5f 2f 85 3d fe 12 3a bd a1 59 c7 bc 36 73 93 bc
       0.06503176 -0.04542827 -0.02433473 -0.017999273
000090 a3 87 ca 3d c6 42 a9 3c 49 26 09 39 ae c0 4e bd
       0.09889152 0.020661723 0.000130796 -0.050476722
0000a0 d3 06 7c bd e4 fe 59 3d ac db 5c bd f8 10 56 3d
       -0.061529946 0.0532216 -0.053920433 0.052262276
0000b0 bc 58 0f be 55 db 66 bd 65 06 9c bc cc be b6 bc
       -0.13998693 -0.056361515 -0.019046018 -0.022307776
0000c0 a7 5f 3c 3d 27 26 23 3d d8 8a b0 bd 86 ca 15 3e
       0.04598966 0.039831307 -0.08620232 0.14628038
0000d0 8c ab af bd 21 21 b0 bd 61 51 af bd 09 be b3 3d
       -0.08577642 -0.08600069 -0.08560444 0.08776481
0000e0 c2 b0 47 3c 43 49 81 bd cb c1 76 3d 46 8f e9 3b
       0.012188138 -0.06312802 0.06024341 0.007127675
0000f0 57 65 b7 3d c2 f9 24 be b4 6b 42 3d 9b 57 10 3e
       0.08954876 -0.161109 0.047465995 0.14095919
000100 dc 2d 80 bd 53 16 a1 3c 98 59 d1 bc 05 20 80 3d
       -0.06258747 0.019663965 -0.025555417 0.06256107
000110 c8 ec 01 bd 3c f4 83 bd d9 f9 71 3d bd 18 85 bd
       -0.031719953 -0.064430684 0.059076164 -0.06498859
000120 29 83 28 3b 29 7a bd bd c7 29 05 3e 6b f1 99 3d
       0.0025712943 -0.09251816 0.13004218 0.0751675
000130 15 11 78 3d 2a 8c fe 3b 76 23 c5 3d ea ed 3a bd
       0.060563166 0.0077681737 0.09625904 -0.04563705
000140 d0 2a f1 3c 38 11 03 be 1f 9f 03 3d e0 ea 39 bd
       0.02943936 -0.12799537 0.03213417 -0.04539001
000150 93 74 a9 3d 92 b4 05 3e cd e6 c8 b9 6f c6 b3 3d
       0.08274188 0.13057163 -0.00038318933 0.087780826
000160 d9 fa 7b bd 56 bc 7c bd 0b f2 a7 bd 76 6f 29 3d
       -0.061518524 -0.06170305 -0.08200463 0.041366063
000170 5d 2b a9 bd ad 7d 8d bc 43 d2 89 3c 1c 24 0f 3e
       -0.08260224 -0.017271841 0.016823893 0.13978618
000180 a2 84 68 bd 35 67 67 3b e0 3e bf 3c 45 37 02 3e
       -0.056767114 0.003530932 0.02334541 0.12716396
000190 e4 4c a1 bc 12 7a 8c 3d 13 03 14 bc 2d c6 11 3d
       -0.019689985 0.068592206 -0.009033936 0.035589386
0001a0 b1 0e 50 3d de 99 59 bd cc 93 2d 3e 29 91 48 3c
       0.05079526 -0.053125255 0.16950911 0.01224164
0001b0 f3 73 85 bd 6a cf 7e bd 67 61 fe 3c 14 6e 06 bd
       -0.06516256 -0.062209524 0.031052304 -0.032819822
0001c0 ef 5b c1 3c a0 0a 31 bd 41 45 aa bd a1 c7 6b bd
       0.023603408 -0.043223023 -0.083139904 -0.057563428
0001d0 b1 01 c3 3d 01 f3 12 3c 80 2d cb bd 71 1d b4 bd
       0.09521807 0.008969069 -0.09920788 -0.08794678
0001e0 24 08 cb bd 5d e7 ae bc ef 26 7d bc e5 f3 cd bd
       -0.09913662 -0.021350557 -0.015451177 -0.10056285
0001f0 d6 cc 70 bd 77 78 21 bc e6 d5 46 3d ff 0b 7f 3b
       -0.058789097 -0.009855381 0.048543833 0.0038917062
000200 1f a1 3d bd af 63 8a 3b 6b f8 6d 3d 12 4e 8b 3c
       -0.046296235 0.004223309 0.058098238 0.017005
000210 bd 07 bc bd 39 f3 00 bb d9 7c d9 bd ea 54 62 3d
       -0.091811635 -0.0019676222 -0.10619516 0.05525676
000220 a5 38 a6 3d 8c 44 f9 bd de 19 cd 3d 8d 35 fb 3d
       0.08116273 -0.121712774 0.100146994 0.122660734
000230 ae 1f b3 3d 92 03 9c 3c 11 0a 4e bd 1b 24 bf bd
       0.08746277 0.019044671 -0.05030257 -0.093330584
000240 49 e1 64 bd cc 71 96 bd f6 79 af bc 12 16 c4 3d
       -0.05587891 -0.07345924 -0.02142046 0.09574522
000250 be 94 18 bc be fe 90 3d ec 77 8b 3c 42 59 3e 3e
       -0.009312807 0.07079838 0.017024957 0.18588737
000260 5c 3d a6 3d 7e 9c 5c bd 11 c5 bb 3d 6a de 84 bd
       0.08117172 -0.05386018 0.09168447 -0.064877346
000270 f1 ce 95 3d 11 d8 37 be 42 3f 42 bd 56 65 8a 3d
       0.073148616 -0.17953517 -0.04742361 0.067576095
000280 20 1f e4 bd 19 30 82 bd 61 21 4d bd e7 47 9b 3c
       -0.11138749 -0.0635683 -0.05008066 0.018955184
000290 3e f6 50 3d f3 3d 69 3d 31 25 69 bd b3 07 f8 3b
       0.051016085 0.056943845 -0.056920234 0.007569277
0002a0 09 53 e4 3c 25 49 22 3c 0e 69 10 be 60 5e 17 bd
       0.027871625 0.009905134 -0.14102575 -0.036955237
0002b0 32 a2 27 be bf 66 b1 3d 39 32 46 3c 72 d4 24 bd
       -0.16370466 0.086621754 0.012096935 -0.040241666
0002c0 f9 fd 8c 3d 30 29 a1 bd 6e 17 94 3d 27 12 02 be
       0.06884379 -0.07869184 0.07231031 -0.12702237
0002d0 75 4c 19 b9 d4 28 18 bd 4d 03 2b 3d a7 16 09 be
       -0.000146197 -0.03714831 0.041751195 -0.13387547
0002e0 95 1f 23 bc b5 e3 c5 bc 6d 0d 23 3e 79 62 eb 3c
       -0.00995626 -0.02415643 0.1592309 0.028733479
0002f0 f2 ac 96 bd 3e ed e1 3d 7a 46 86 3c 8b e8 5d bd
       -0.073572055 0.110315785 0.016391028 -0.05417685
000300 ed f8 9f bd d8 91 58 3d 6e 99 a4 3d ef 52 4b 3e
       -0.07811151 0.052873462 0.08037077 0.19855855
000310 50 96 ef bd 8e 38 5f bd 6f 76 2e bd d1 c9 5d bd
       -0.11698592 -0.054497294 -0.042593416 -0.054147545
000320 74 d3 e2 3d 4e 24 18 bd 35 64 57 bd f4 de 24 bd
       0.11075488 -0.037143998 -0.0525858 -0.040251687
000330 fe 43 f7 3a 7d 4e e8 3d 0d d0 0e 3d 82 42 d4 bd
       0.0018864868 0.113430955 0.03486638 -0.10364248
000340 f8 22 46 bd 87 91 b4 3d 01 d9 db 3c 97 b9 99 bc
       -0.048373193 0.0881682 0.026836874 -0.018765254
000350 bc 3c e7 bd 99 5b 9d 3d 06 ee b1 3d 12 4e e0 bd
       -0.11290881 0.076834865 0.086879775 -0.10952391
000360 e5 88 d3 bd 98 7a a5 bd 7a 96 32 3d 5f 95 c3 3c
       -0.10328845 -0.080800235 0.043600537 0.023874937
000370 1a 9e 8f bc 67 e8 0f bb 16 fa a3 ba 5c 42 6f 3c
       -0.017531443 -0.002195859 -0.0012510445 0.014603224
000380 af 43 94 bd 7a c0 e9 3c e1 e8 0b bc b8 52 c0 39
       -0.07239472 0.028534163 -0.008539409 0.00036682724
000390 22 98 8d 3d a0 a5 3f 3c 15 4e a2 3c dd 71 00 be
       0.06913783 0.011697203 0.019812623 -0.12543435
0003a0 ad 3c 72 bd 8d c1 a6 bd f3 3e 9a bd 8f 38 65 bd
       -0.059139896 -0.08142386 -0.07531538 -0.05596214
0003b0 c9 7f ed 3b 0a ad ba 3d ed ea 84 39 5f 00 14 3d
       0.007247899 0.09115036 0.00025352035 0.036133166
0003c0 dd e2 79 3d a7 29 82 3d 16 1e 83 bb 03 6c 00 be
       0.06100737 0.06355601 -0.0040013893 -0.12541203
0003d0 74 fd 7c bd 29 c3 d2 bd dd 2b 08 bd cd 36 f6 bc
       -0.06176515 -0.1029113 -0.033244956 -0.030055428
0003e0 28 92 41 3d 7c 5b 33 bd d9 14 c9 3d 89 25 24 3e
       0.047258526 -0.04378842 0.098184295 0.16029944
0003f0 12 78 03 3d 5f 4c 13 bd d8 71 3f bc 5d b2 27 bd
       0.03209693 -0.035961505 -0.011684857 -0.040941585

fc2.bias f4 [100]
000000 5b 2e 90 3d bb 27 12 bd e9 d7 ac 3c 0d 04 6f bc
       0.070400916 -0.03568242 0.021099048 -0.014588368
000010 a0 a4 5f 3d fc 97 64 bc 1e 16 1a 3d e5 a4 30 3d
       0.054600358 -0.0139522515 0.03761875 0.043126006
000020 41 ff 08 be 3e 8e b3 bd 0e 3b 3a 3d 92 f5 7a bd
       -0.13378622 -0.08767365 0.045466475 -0.06126935
000030 b4 b3 2c bd 2e f7 ad 3d fd db 88 bd 8e c4 32 3d
       -0.042163566 0.084944114 -0.066825844 0.04364448
000040 38 bf d6 3d 66 cb ce bb 2d 21 a3 bd 8a 3e 93 3d
       0.10485691 -0.006310868 -0.07965312 0.07189663
000050 2c 1c df bd 74 22 bd bd 37 31 ae bd 3d 30 d4 bd
       -0.10894045 -0.09235087 -0.08505481 -0.10360763
000060 c7 54 7a bd 86 bb b4 bd 33 5a a8 bd 28 6a 42 3d
       -0.061116006 -0.0882483 -0.08220329 0.04746452
000070 ab ff 77 bd ca 6d 41 3d 2d 21 34 3d 53 74 2d 3d
       -0.06054656 0.047223844 0.04397695 0.042347264
000080 ca 42 6e bd 0b 09 49 bc 2a 69 4a 3d 4b 4b 5c 3d
       -0.058169164 -0.012270222 0.0494167 0.053782742
000090 ff 8b 94 3d d6 ba 5a bd 9f 72 dc bd c1 87 d5 3c
       0.07253265 -0.053400837 -0.1076405 0.02606571
0000a0 7e ee 9e 3d 36 e8 88 bd f4 95 93 bd 80 20 d3 3c
       0.077603325 -0.06684916 -0.07206336 0.025772333
0000b0 54 b0 27 3d 5a e7 85 bc c8 d0 86 bb ca 1a 91 3c
       0.040939644 -0.016345669 -0.004114244 0.01771297
0000c0 a5 89 42 3d ec de 52 bd d1 db ac 3d 7f bb 83 bd
       0.04749455 -0.051482126 0.08440364 -0.064322464
0000d0 9a 5c 5f 3d e2 e7 a3 bc 50 34 8b 3d bb ce 5d 3d
       0.05453167 -0.020008031 0.06797087 0.05415223
0000e0 0e 59 be bc e3 7e 8a 3d 1e 00 45 bd 05 9b 8d bd
       -0.023235824 0.06762483 -0.048095815 -0.06914333
0000f0 b9 20 c6 3d 72 64 4b 3d e7 d8 ce 3b d8 d6 4e bd
       0.0967421 0.04965634 0.006312478 -0.05049786
000100 6f 37 a0 3d cf 3a 0f 3d bb b7 b0 bd 85 96 c5 bd
       0.07823073 0.034968194 -0.08628794 -0.0964785
000110 a5 e0 c1 bc e1 e1 82 bc 23 08 c4 3d 38 70 25 3d
       -0.02366669 -0.015976848 0.095718645 0.040390223
000120 18 7b b8 bc ee 94 60 3c 27 6f 2c 3d db 26 92 3d
       -0.022519633 0.013707383 0.04209819 0.07136317
000130 05 3a d3 3c 5c f2 a7 3d 72 c3 42 bd 93 7c d2 3c
       0.025784502 0.08200523 -0.047549672 0.025694167
000140 a2 2d b5 3c 85 71 c4 3c c8 67 80 bd 94 a6 5e 3d
       0.022116486 0.023979912 -0.06269795 0.05435808
000150 80 fd 8b 3c ae 72 b9 bd 09 18 6b bc b8 97 fa 3b
       0.017088652 -0.090550765 -0.014348992 0.007647481
000160 1e 2e 6b bd 97 ca 6e 3a f5 d2 75 bd 41 7d 93 bd
       -0.057417028 0.0009109168 -0.060015637 -0.07201625
000170 68 d4 02 3d 33 19 90 3c d8 5e 37 bd ba 4b 72 bd
       0.031940848 0.01759014 -0.044768184 -0.05915425
000180 32 10 96 3c e2 06 3d 3d 1f 94 a8 3d 48 20 aa bd
       0.01831827 0.046149142 0.08231377 -0.083069384

fc3.weight f4 [100, 100]
000000 04 81 60 bc 56 b7 c8 bd 38 86 8a bd 01 a0 91 3d
       -0.013702635 -0.098005936 -0.067638814 0.071105964
000010 9f 1e 9d bd 11 db 91 bd 92 82 9c bd 9f 29 cd 3c
       -0.07671856 -0.07121862 -0.07642092 0.02504426
000020 19 c9 76 bd 14 ce f4 3c 0a 25 5f 3d 95 2f eb bc
       -0.060250375 0.029883422 0.054478683 -0.028709212
000030 f4 7a 76 bd 9c ef 85 3d dd be 80 3d a2 41 91 bc
       -0.06017585 0.065398425 0.06286404 -0.017731491
000040 e8 dd 7e bc 82 c6 f2 3c 6e 35 a2 bd ed a3 06 bd
       -0.015555836 0.029635672 -0.07920347 -0.032871176
000050 f4 78 21 bc 26 72 c3 3d f5 0f c6 bc 36 71 53 3d
       -0.009855498 0.095432565 -0.02417753 0.05162164
000060 ae 12 69 bd 05 88 66 3d 5b e3 ac 3d 30 03 c6 3d
       -0.05690258 0.056282062 0.08441802 0.09668577
000070 e3 3c 2f bd 31 13 0a bc 71 5a b7 bb b8 2d 93 bd
       -0.042782675 -0.008427427 -0.0055954983 -0.071864545
000080 09 ee 82 bd c9 c4 0b bd 44 03 34 3b 25 8d aa bd
       -0.06393058 -0.034123216 0.0027467767 -0.083277024
000090 bf dc 5c bd cf 95 bd 3d e9 11 8d 3d 48 71 ea 3d
       -0.053921457 0.09257089 0.06888182 0.11447388
0000a0 1c 58 b4 3d 46 1b 8b 3d 7d bb 46 bd 68 0d eb bd
       0.08805868 0.06792311 -0.048518647 -0.114771664
0000b0 d4 6b ea bd 55 0d 80 bd 66 25 ae bd 4d a7 62 3a
       -0.11446348 -0.06252543 -0.08503227 0.00086461456
0000c0 3d 51 4d bd 25 97 87 3c 7f 83 c2 bc a8 9e 98 3d
       -0.050126303 0.016551564 -0.023744343 0.07452136
0000d0 04 6c 4f 3d 8a 08 7f 3d ff 26 2d 3e bb ae b8 3d
       0.05064012 0.062264003 0.16909407 0.09017702
0000e0 f6 97 c8 bd e6 84 86 bd 43 d8 7c bd 9c 10 29 3d
       -0.09794609 -0.06568317 -0.06172968 0.041275606
0000f0 86 98 57 3d 6c fb c5 bc 0c 39 45 bd 98 b0 0c bd
       0.052635692 -0.024167739 -0.048150107 -0.0343481
000100 2e 0c dd 3d 16 ab 5f 3d 2a d7 7c 3d c0 8d 40 3d
       0.10793339 0.05460652 0.061728634 0.047010183
000110 a5 9a 52 3d e8 fe 55 3d 0f 23 a0 bd 19 8e 81 3d
       0.05141701 0.05224505 -0.07819187 0.06325931
000120 ef 97 4e 3d 78 fa c9 3d db 9f 94 bb 70 09 af bd
       0.050437864 0.09862226 -0.004535658 -0.08546722
000130 5e 52 5f 3d 99 5b da 3c 1c ee 4f bc 1e d8 9b 3d
       0.05452191 0.026655005 -0.012691047 0.076095805
000140 26 b4 6d bd 85 86 f6 bd 78 54 54 bc 08 db a5 bb
       -0.05803313 -0.12037376 -0.012959592 -0.005061511
000150 da 00 9f 3b 27 62 ae 3d c5 c6 a8 bd d2 4d 90 3d
       0.0048523964 0.08514815 -0.08241037 0.07046093
000160 3a 79 1d bd f6 39 ad 3d d9 ac 0c bd dc a7 25 bc
       -0.03844569 0.08458321 -0.034344528 -0.010110822
000170 d9 8c 05 bb b0 8f d0 3d 9c ca af 3d b4 a9 80 3d
       -0.0020378141 0.10183656 0.085835665 0.06282368
000180 04 40 18 bd 41 d8 cd bc b9 78 b9 bd 80 3b 99 3d
       -0.037170425 -0.025127532 -0.09056229 0.07482052
000190 00 72 1a 3d c1 c4 70 3b 5a 03 b7 bc 39 bd bf bc
       0.037706375 0.0036738368 -0.022340465 -0.023405658
0001a0 5a cf 8d 3e 9f b8 c5 3e 80 1f 5e be 76 11 f0 bd
       0.2769726 0.38617417 -0.21691704 -0.117220804
0001b0 12 fa 09 3f 56 ec f5 3e c6 ec 43 be 27 62 08 bf
       0.538972 0.48031873 -0.1913329 -0.5327477
0001c0 98 8b 59 bd 65 48 88 3e 3c f4 f6 3d 99 91 ea 3e
       -0.053111643 0.26617733 0.12058303 0.45814207
0001d0 37 01 84 bd 87 d5 1e 3f 7b 77 88 3e a3 6a d8 bd
       -0.06445544 0.62044567 0.26653656 -0.10567214
0001e0 d9 4c 3f 3e 22 b8 bd bd 4d 04 c6 3d 35 07 80 be
       0.18681659 -0.09263636 0.09668789 -0.250055
0001f0 f9 53 a6 3d 44 46 49 be a5 51 bc bc 09 ef 36 3e
       0.08121485 -0.1965571 -0.02298815 0.17864622
000200 59 e6 f6 bc 24 5a 2c 3e 85 a2 65 3d 84 43 c6 bd
       -0.030139135 0.16831261 0.056063194 -0.09680846
000210 a0 a3 92 be c8 c3 b7 3d 95 7f 87 be a8 af 99 3c
       -0.2864046 0.08972889 -0.26464525 0.018760517
000220 b4 6f e0 3c df 1b 90 bd eb 30 99 3d a9 3c cd be
       0.027397014 -0.07036566 0.074800335 -0.40085343
000230 f4 98 40 bd d5 63 19 bd 74 8d da bc 13 f0 59 be
       -0.047020867 -0.037448723 -0.026678778 -0.21282987
000240 09 94 db bc 35 78 8f bd 48 73 a0 bd 35 6c 8f 3d
       -0.026803987 -0.070053495 -0.07834488 0.07003061
000250 a6 87 97 bd 69 10 53 be a1 05 d2 bc 8c e5 43 3e
       -0.0739892 -0.20611729 -0.02563745 0.19130534
000260 b4 83 e0 ba d5 4f 06 bd bb 95 92 be 8d b8 2e 3c
       -0.0017129094 -0.032790978 -0.2862986 0.0106641175
000270 18 c6 28 be 00 29 24 3e 6b 63 ed 3d de 28 44 bd
       -0.16481817 0.16031265 0.11591228 -0.047890536
000280 3a 03 a9 3d 7e b5 82 3d fa 3c 27 3e 49 2f 43 3e
       0.082525685 0.06382273 0.16331854 0.19061007
000290 f5 32 f8 be 53 ee 6c 3d 59 e5 d4 be 4e a9 2d be
       -0.48476377 0.05784447 -0.41581228 -0.16959116
0002a0 6f 4e 5d be 4f 1f ae be a8 3e 58 be 9a a9 e7 3e
       -0.21611951 -0.34008262 -0.21117651 0.45246583
0002b0 d8 d7 9f 3a 71 2f a4 3d 6d f9 aa be 7e b1 a8 3d
       0.0012195064 0.08016861 -0.33393422 0.08236979
0002c0 1f 6c 01 3c e9 e3 49 bd a7 93 0c 3d 76 0f a0 bd
       0.007899313 -0.049289618 0.0343205 -0.07815449
0002d0 96 2b a1 3e 9a e5 fd 3d d3 b5 6f 3d 1c 58 3a 3d
       0.31478566 0.12397309 0.05852301 0.045494184
0002e0 60 70 ec bd d1 2d 07 bd 87 60 f4 3c 5a 0e 32 3d
       -0.11544871 -0.03300268 0.029831184 0.043470718
0002f0 d2 d6 b3 bc 4c 67 18 3f 4a 8a 1e bd 69 98 f7 3e
       -0.02195302 0.5953262 -0.0387061 0.48358467
000300 03 ad b7 bd ac ec c2 3d d1 22 dd 3d b5 08 26 be
       -0.08968546 0.09517798 0.10797656 -0.16214259
000310 2d 1a 9d bc 12 84 34 3e 2d b8 e0 be 3b c7 00 3e
       -0.01917752 0.17628506 -0.43890515 0.12576
000320 3b f8 f9 bc 0b 89 b7 3d 31 e5 fd 3d 1c d7 11 3d
       -0.030513873 0.08961686 0.123972304 0.035605535
000330 7b 9b 17 be 97 6e 50 be de 25 2a 3d e7 fa 0d 3e
       -0.14805405 -0.20354687 0.04154002 0.13865243
000340 c0 67 2a bc d8 5d 72 3e 62 82 ca bc dd f7 86 bb
       -0.0104007125 0.23668611 -0.024720374 -0.004118903
000350 8a 52 0b be db 70 f5 bd a5 37 2b ba f4 2b 8c 3c
       -0.13605705 -0.11984416 -0.0006531424 0.017110802
000360 24 34 3c bd 7f c0 3a be 0f 69 ae 3d 67 43 f8 bd
       -0.045948163 -0.18237494 0.08516132 -0.12122231
000370 73 31 e6 3d be 98 1e bd f3 79 79 3d d8 c5 0b 3e
       0.112399004 -0.038719885 0.060907315 0.1364969
000380 b5 0a c5 3d 01 1c 90 bc 85 d7 8f bd 2a 8d 16 be
       0.09621183 -0.017591478 -0.07023529 -0.14702287
000390 5d 51 02 3e d1 50 40 bc 02 92 ea 3c 27 d0 9c ba
       0.1272635 -0.011738018 0.028634075 -0.001196389
0003a0 c7 d5 ff 3d 28 f2 24 bd f3 9f e8 3c e9 71 8b bd
       0.12491947 -0.04027 0.028396582 -0.06808836
0003b0 f5 bf a3 3c 25 8f 18 3e ea aa df bb 00 a5 86 3e
       0.019988993 0.14898355 -0.0068257945 0.2629776
0003c0 da 6c 52 3e 89 97 90 3d 8e 10 b9 3d 53 77 f2 bc
       0.20549336 0.07060153 0.09036361 -0.029597914
0003d0 ab 76 50 bd 4f e8 3d bd 16 76 83 3d 79 71 11 be
       -0.05089442 -0.046364125 0.064190075 -0.14203443
0003e0 f8 53 3c bd 2a 25 d0 bd d5 73 90 bd 08 6d d3 3c
       -0.045978516 -0.101633385 -0.07053343 0.025808826
0003f0 c9 99 89 3c e1 40 b4 3d 3b e6 3b 3e b7 f2 4b 3e
       0.016796963 0.08801437 0.18349545 0.19916807

fc3.bias f4 [100]
000000 f7 d2 17 bd 41 2e 8e 3d 8d 1e 1c bd 3c d2 7c bd
       -0.037066426 0.06942416 -0.038115073 -0.061723933
000010 5f b8 21 3d 81 f8 b7 bc 95 a1 10 3d c7 87 20 3d
       0.03948247 -0.022457363 0.035310347 0.039191987
000020 d9 6c 57 bd 64 73 10 3c a0 f4 99 3d 88 3e 91 3d
       -0.05259404 0.008816574 0.07517362 0.07092005
000030 a1 f1 92 bd e5 be 79 3d 44 b9 17 3d 3b 7d 18 bd
       -0.07174993 0.060973067 0.037041917 -0.037228804
000040 f9 d3 b3 3c c1 9b 70 3c c9 9e 09 bc 07 07 09 3c
       0.021951662 0.014685572 -0.008399674 0.008363492
000050 f1 3f 9e 3d ed 36 d0 bd 61 b1 2a 3b f7 d0 78 bb
       0.077270396 -0.10166726 0.0026045667 -0.003796635
000060 13 35 d8 3d 8b 40 6e 3c f6 7c 2a 3d e7 f4 7b 3d
       0.10556998 0.014541755 0.04162308 0.061512854
000070 13 9a 28 bc d8 e6 95 3d 00 04 0b 3d 79 f4 03 3d
       -0.01029064 0.073194206 0.03393936 0.03221557
000080 71 33 bc 3d 84 b1 30 3e 99 2d 67 3c a8 c9 56 3d
       0.09189499 0.17255217 0.014109992 0.052438408
000090 86 97 d0 3c 14 a1 af 3d f2 87 3c bd 6a c8 80 3c
       0.025462877 0.08575645 -0.046028085 0.015720565
0000a0 65 95 72 bc aa e8 b1 bc 2f 31 68 3c 49 b9 c4 bd
       -0.014806126 -0.021717388 0.0141718825 -0.09605653
0000b0 f6 2d aa bb dc ab 13 3d 2c 86 19 bd d2 7b eb bc
       -0.0051934673 0.03605257 -0.037481472 -0.028745566
0000c0 09 7a 18 3d 76 62 cc 3d 4d 68 ce 3d 58 8c 41 bc
       0.037225757 0.099797174 0.100784875 -0.011813246
0000d0 89 be 7e 3d d6 0e 7c bd 31 1c 99 bd b3 3f db bb
       0.062193427 -0.061537586 -0.0747608 -0.006690943
0000e0 11 66 87 3d eb 74 8d bd de fa 98 3d 79 87 13 bd
       0.066112645 -0.06907066 0.07469724 -0.03601787
0000f0 3a 25 9c 3d 19 d1 64 bd b7 b2 5b bd 94 2c aa 3d
       0.07624288 -0.055863474 -0.053637233 0.08309284
000100 f3 b2 e1 bd 6d d1 e5 3d 56 9a a2 3d 8e b4 95 3c
       -0.1102046 0.112215854 0.079395935 0.018274572
000110 c5 64 d7 3d ab 21 a5 bd 03 e2 6d bd 6a 80 41 3d
       0.10517267 -0.08063062 -0.05807687 0.047241606
000120 02 90 0f bd 22 6a dd 3d 5a 2e 52 3d 09 12 f3 3b
       -0.035049446 0.10811259 0.051313736 0.0074179214
000130 4d b0 a8 3d a8 33 b1 bc 33 7c 9d 3d 33 dd 14 bc
       0.08236752 -0.021631077 0.07689705 -0.009085941
000140 88 15 23 3d 03 8e 36 3c e5 60 c1 bb 3e 1c a4 3d
       0.039815456 0.011142257 -0.0059014433 0.08013199
000150 5a 9e ff bb 04 a5 8a 3d 78 8f 89 bd 9c 22 16 bd
       -0.0078008594 0.067697555 -0.067168176 -0.0366541
000160 04 79 ab 3d 29 52 6c 3d 21 a8 50 3d 50 e2 da 3c
       0.08372691 0.05769554 0.05094159 0.026719242
000170 e0 6e 9a 3d b8 76 27 3d 94 a0 92 3d b6 cd f6 3a
       0.07540679 0.040884703 0.07159534 0.0018829617
000180 ec d3 cf 3d 42 f7 f4 3b 60 b7 cf 3d 07 d4 0b bd
       0.10147843 0.0074757645 0.10142398 -0.034137752

fc4.weight f4 [8, 100]
000000 38 4c b6 bd d1 07 5c be 0e 83 1b 3b d0 8f 13 be
       -0.08901256 -0.21487357 0.0023729238 -0.14410329
000010 50 77 fc bc 02 64 1c be c2 73 1d 3d 41 0a 73 bd
       -0.030818611 -0.15272525 0.038440473 -0.05933595
000020 3c 55 de bd 71 ec 7c 3d 24 18 cb bd d8 9a b8 3d
       -0.10856101 0.061748926 -0.09916714 0.09013909
000030 05 43 0a bb 2d 11 be bc 08 28 96 3d 80 e4 67 bc
       -0.0021097076 -0.02320155 0.07331854 -0.0141536
000040 9b f0 8d 3d e1 99 4c be 9b 92 94 bd ca 89 0f 3d
       0.069306575 -0.19980575 -0.07254525 0.035043515
000050 36 02 17 3d 4a 15 5b bd b9 7f 09 be 10 6b 48 3c
       0.036867343 -0.0534871 -0.13427629 0.012232557
000060 de e1 ae 3d 65 00 86 3e f1 f6 c6 bd a5 33 9f bd
       0.085391745 0.26172176 -0.09715069 -0.07773522
000070 ba d7 07 3e af d1 9d 3d 64 9e 85 bd a1 8d bd bc
       0.13265887 0.077060096 -0.06524351 -0.023138823
000080 8c 83 0d 3e 6d 2d 68 3b 9b fc e0 bd 6c db 4b 3c
       0.13819712 0.0035427467 -0.10985681 0.012442451
000090 ac 27 ec 3b cc 1e 03 bc 24 b5 4a 3c 63 e0 be ba
       0.0072068777 -0.008002948 0.012372289 -0.0014562722
0000a0 60 77 ab be 77 d4 0e 3e ca f6 30 bd 6e e9 73 bd
       -0.33489513 0.13948236 -0.043204106 -0.059548788
0000b0 4a 44 8d bd 82 b9 95 bc 87 7d 20 3c 9b 80 a2 bd
       -0.06897791 -0.018276934 0.009795553 -0.07934686
0000c0 37 75 27 3d cf 2b b1 3d fe 03 f6 bd 2a 48 07 3e
       0.04088327 0.08650934 -0.1201248 0.13211122
0000d0 a2 c2 e1 bc 80 89 a8 bd 94 10 f1 bd 9b b6 7b 3c
       -0.027558628 -0.08229351 -0.1177074 0.015363361
0000e0 a6 1b 18 bd d4 a8 da 3d 80 25 99 bd 0c 74 c8 bd
       -0.037135743 0.10676733 -0.07477856 -0.09787759
0000f0 a5 a2 25 3d 31 be 33 3b 90 b7 16 bd da 37 7c 3c
       0.040438313 0.0027426595 -0.036796153 0.015394175
000100 5b 1c a3 bd 13 5a 86 3b 48 1b 98 bd 71 0e ac 3e
       -0.07964393 0.004100093 -0.074270785 0.33604768
000110 9c 18 b3 bd ed 9f f2 bd 5d 73 d5 3d 6b 7e 6d 3f
       -0.08744928 -0.1184691 0.104223944 0.92771024
000120 57 48 9e 3d ee db 27 3d ac 33 88 3c 43 eb d0 3d
       0.077286415 0.040981226 0.016626202 0.102011226
000130 b9 80 09 be f8 92 36 be f2 3e 27 bc ca 69 17 3e
       -0.1342801 -0.17829502 -0.010207878 0.14786449
000140 4c 09 a1 3d d6 04 97 3d 40 70 35 bd 06 c1 82 3c
       0.07863101 0.07373969 -0.044296503 0.015961181
000150 4b 10 28 3e 34 05 1f be ff 22 d2 3d ea 11 5e bd
       0.16412465 -0.15529329 0.10260581 -0.054216303
000160 dd ef dd 3d 8c 5e 9d bd b5 44 87 3c 70 51 cf 3d
       0.10836766 -0.07684049 0.016512254 0.10122955
000170 e6 fc 7c 3d 78 16 b5 3d f4 46 45 3d b1 84 73 3d
       0.06176462 0.08842176 0.04816337 0.059452716
000180 37 c7 48 3c ae ed f9 3d 2a ab bd bd db 40 26 bc
       0.012254528 0.12203537 -0.092611626 -0.010147299
000190 51 df 89 bd a9 d8 5c bd a6 1e e7 bd 16 23 18 bc
       -0.06732047 -0.05391756 -0.112851426 -0.009285709
0001a0 2b da 6a bd ee c3 ca bd ad 42 b2 bd 1f 50 a4 3d
       -0.057336967 -0.09900652 -0.08704124 0.080230944
0001b0 b9 c0 14 3d 13 c0 d6 bc 16 0d 64 bd 69 45 08 3e
       0.036316607 -0.026214635 -0.055676542 0.13307728
0001c0 d4 32 52 bd 43 72 35 be bb 23 09 3d 3f 9e e2 bb
       -0.051318005 -0.17719369 0.03348134 -0.006915837
0001d0 dd dd d4 3d 72 c1 fe bd 63 50 8a bd ba c4 d1 ba
       0.103938796 -0.124392405 -0.06753614 -0.0016004064
0001e0 51 19 1b 3c 36 c2 88 bd 06 d5 c0 bd 48 99 a8 3d
       0.009466485 -0.06677668 -0.09415631 0.08232361
0001f0 a3 ae 7d bc 87 8b d3 bc 7e 4c e6 3c a7 45 4a bd
       -0.015483531 -0.025823368 0.028112646 -0.049382832
000200 7b 16 fa bb 93 a4 c4 bd e8 ea 9d bd 92 bb b6 bd
       -0.0076320744 -0.096017025 -0.077108204 -0.08922495
000210 86 33 08 bc 6c bd 72 3d 4a 1a 92 3c ec d9 44 bd
       -0.008313065 0.059262678 0.017834801 -0.04805939
000220 4b 71 06 3e a2 c5 98 3c 61 4c ff bd 93 bb b1 3d
       0.13129155 0.018648926 -0.1246574 0.08678355
000230 f8 9c 95 3d 83 62 30 bc ad e6 b5 3d 12 b9 f7 bd
       0.0730533 -0.0107656745 0.088818885 -0.12095846
000240 3c 33 31 3c 79 d9 e6 3d 28 6d 60 bd d9 59 4a 3d
       0.010815438 0.11271948 -0.0547916 0.04940209
000250 18 94 e1 3c 3f d4 aa 3d 0a 98 53 3d bf 48 ad 3c
       0.027536437 0.08341264 0.051658668 0.021152852
000260 98 ae 39 3d a8 ed ab bd d5 22 a2 bd e6 73 78 3c
       0.04533252 -0.08394939 -0.079168 0.015164351
000270 a3 35 e9 bd 60 e1 64 bd be c6 49 bd 44 44 4a 3c
       -0.113871835 -0.055878997 -0.0492618 0.012345377
000280 38 c4 f7 3d 11 04 9f bd 04 6c 99 3d 27 ac d7 3d
       0.12097973 -0.077644475 0.074913055 0.10530882
000290 b0 87 8f 3e 4e 53 99 3d 77 86 30 bd f1 b9 4e 3d
       0.2803321 0.07486592 -0.043096986 0.050470296
0002a0 25 79 c5 be 52 1d 93 3d 13 ba e8 3d f8 7d 97 3e
       -0.38568988 0.07183327 0.11363616 0.29588294
0002b0 ff 0b 02 bd b5 39 ce 3d 9e 84 ba bb f4 f8 51 3d
       -0.03174972 0.100696005 -0.0056920787 0.05126281
0002c0 b8 70 a0 3d 10 21 f8 3d 53 6c 8d bd e9 40 f7 bd
       0.078339994 0.12115681 -0.06905427 -0.120729275
0002d0 61 7e f8 3d 2c ab ca bd 04 5f 6d bb 6c f4 3a 3d
       0.1213348 -0.0989593 -0.0036219964 0.045643255
0002e0 cc 71 73 bb b2 d1 7b bc bd 46 58 3d 84 48 aa bc
       -0.0037146686 -0.0153698195 0.052801836 -0.020786531
0002f0 0d ed dc bc 5e 3d a4 bd 92 32 19 3d 65 89 bd 3d
       -0.026968503 -0.08019517 0.037401743 0.092547216
000300 8c 98 d8 3d a7 ba c3 bd da 9c 42 bc dd 46 35 ba
       0.10575971 -0.095570855 -0.011878217 -0.00069151615
000310 0a 4e 75 bd c3 87 fb bd f6 48 16 3d bd 4a fd 3c
       -0.059888877 -0.12281754 0.036690675 0.030919427
000320 e0 fb cf bd 24 cb f0 3c a4 17 53 3d 35 5f 6e 3d
       -0.10155463 0.02939374 0.051536217 0.058196265
000330 89 a4 bc bd 58 ea fc bd 4d f3 ba bd b9 40 b8 3d
       -0.0921107 -0.12349385 -0.09128437 0.0899672
000340 5d 5f 05 be 39 8f dd bd bc 67 d2 3d 01 aa ca bd
       -0.1302466 -0.10818333 0.10273692 -0.09895707
000350 07 a0 85 bd 31 df 9f bd ad 74 9e bd e9 3a 01 3d
       -0.065246634 -0.07806242 -0.07737098 0.03155032
000360 60 c0 1d 3c 21 0d 38 3c 62 ec 99 3d a6 be 84 bd
       0.009628385 0.011233599 0.075157896 -0.06481676
000370 6a 21 a5 bd 7c 84 a4 3b c5 9b 86 3d 08 3d d4 3d
       -0.08063014 0.005020676 0.065726794 0.10363203
000380 9e b9 3b bd 02 af fa bd 1b ff d9 bc 67 a8 2f bc
       -0.045831315 -0.12240411 -0.026610902 -0.010721303
000390 e5 2c e6 bd 6a c8 f0 3d bd ae 85 3d e2 69 b3 bd
       -0.11239032 0.11756976 0.06527469 -0.0876043
0003a0 10 d5 10 bd 94 23 ae 3c 52 4e 44 3d f1 73 76 bd
       -0.035359442 0.0212572 0.047926255 -0.060169164
0003b0 09 61 ac 3c 95 d9 3c bd c5 02 fd bd c2 2e c5 3d
       0.021042364 -0.04610594 -0.12354044 0.09628059
0003c0 b7 ae 2f be 63 14 97 3d 62 fb 9d bd 10 d4 3f 3d
       -0.17156492 0.07376935 -0.07713963 0.046833098
0003d0 a7 6f b3 bd 29 91 1e 3d bb f6 bd bd 77 22 05 be
       -0.0876153 0.038712654 -0.09275576 -0.13001429
0003e0 8b 81 a0 bb 61 9b 76 3d 74 ea e8 3c e0 14 7f 3d
       -0.004898255 0.060206775 0.028432108 0.062275767
0003f0 b7 d6 a1 bd 61 51 c7 bd 52 7b 1a 3c 73 5a 91 3b
       -0.07902282 -0.09732319 0.009428816 0.004435831

fc4.bias f4 [8]
000000 4b 83 90 bd 8f 1d 51 bb c9 64 d8 3d 0f a4 4f 3d
       -0.07056292 -0.0031908487 0.10566098 0.050693568
000010 75 09 c3 bd 9d 08 ad bc 38 73 b1 3d fb ba 8a 3d
       -0.09523288 -0.021122271 0.08664554 0.06773945
